vision/classifier.pth (torch_old, 37459 bytes, 6 tensors)

conv1.weight f4 [8, 1, 3, 3]
000000 b9 b0 ec 3e ad b2 e5 3e 57 bb 5f 3f cb cd 3d 3e
       0.4622858 0.4486288 0.8739523 0.18535535
000010 a0 4f 6b 3d 85 51 1a 3e 1e 68 04 bf 10 c5 22 bf
       0.057448983 0.1507016 -0.5172137 -0.63581944
000020 77 fd 72 be 44 63 8b be be bc a7 be 42 2b 0e bf
       -0.23729502 -0.2722417 -0.32761186 -0.55534756
000030 cc d5 c0 3e 8d a5 ad 3e 6f 1c 06 3d 55 ce 1c 3f
       0.37663114 0.33915368 0.03274196 0.6125234
000040 ab 0e c5 3e 20 c9 1d 3f 23 20 ad be c5 e9 56 bf
       0.38487753 0.6163502 -0.3381358 -0.83950454
000050 81 2f 2a bf 51 d9 ae 3d c4 67 21 3e 49 4d 8c bc
       -0.66478735 0.085375436 0.1576224 -0.017126696
000060 1a a1 0e 3f f5 ff 23 3f 50 84 00 3f 15 22 20 bf
       0.5571457 0.64062434 0.5020189 -0.62552005
000070 ea 0a 51 bf 95 aa 7f be 25 9c ed be 6b 59 86 be
       -0.8165728 -0.24967416 -0.4640819 -0.26240095
000080 b9 f1 cf 3c 4c f1 06 be c4 1a 16 3f bf e5 09 3f
       0.025383817 -0.13177985 0.5863459 0.5386619
000090 c9 bd 65 3e 12 6b 3e be 42 49 26 3d 36 6e f2 3e
       0.22435679 -0.18595532 0.040597208 0.4734971
0000a0 84 d7 09 3f c1 9f d1 3e 78 51 16 3f 58 cf 04 3f
       0.53844476 0.40942195 0.5871806 0.5187888
0000b0 11 f7 01 3f ad 74 7c bd 07 e8 2c 3f aa 77 07 3f
       0.5076762 -0.06163471 0.67541546 0.5291697
0000c0 62 5b 64 be 73 fa 1f 3e 30 f5 b4 3d 79 db 1b bf
       -0.22300485 0.15622883 0.08835828 -0.60881764
0000d0 30 3c 34 bd 4d f9 cf 3e 6a 8e 5f 3e a7 20 53 bd
       -0.04400271 0.4061989 0.2183167 -0.05154481
0000e0 39 0f 0e 3f 5a a8 26 bd 71 ef f7 3e 73 87 44 3f
       0.5549198 -0.040687896 0.48424867 0.7676918
0000f0 c3 c1 e4 bd 81 d0 00 3f 1e 84 12 3f 42 43 22 3f
       -0.111697696 0.5031815 0.57232845 0.6338388
000100 d9 29 04 3f d8 9f 10 bf 0b d5 89 3e 59 a8 e4 3e
       0.51626354 -0.564939 0.2692035 0.4465969
000110 8a df 22 3d 92 7b f7 bd 9d 08 98 3e 86 84 19 3f
       0.039763965 -0.12084116 0.2969407 0.5996784

conv1.bias f4 [8]
000000 e8 dd 7d bb e2 1f 80 3e bc 01 33 3d 45 18 00 3f
       -0.0038737003 0.25024325 0.043702826 0.5003703
000010 3f 27 d0 bb 9c 9d 20 bc c3 d8 f0 bb 25 11 61 bb
       -0.0063523347 -0.009803202 -0.0073500588 -0.0034342494

conv2.weight f4 [16, 8, 3, 3]
000000 88 e2 51 3d a3 96 d2 be 4a 74 7d be 1d 24 b0 3e
       0.051241428 -0.41130552 -0.24751392 0.34402552
000010 ab fc 3d be 2e 50 ef be 3d 1d 39 3d 30 17 5b 3e
       -0.18553416 -0.4674086 0.0451939 0.21395564
000020 37 c0 39 3d 6a 3e a3 3d 49 23 a8 bb ec ab 83 bd
       0.045349326 0.07970889 -0.0051311594 -0.06429276
000030 2f f1 9d bb f2 43 41 3e 1b c8 09 3e fe 08 72 be
       -0.004820011 0.18873575 0.1345524 -0.23636243
000040 a7 fd 05 bc ef b9 8e 3d 32 97 b0 be c6 2c c0 3c
       -0.008178151 0.06969058 -0.34490353 0.02345885
000050 da 64 31 be 9e fe 9d be cf 93 1c 3e b0 c9 cc 3e
       -0.17323628 -0.3085832 0.1529076 0.39997625
000060 a0 b6 e1 be d7 54 f8 bd bd 52 9b 3e c7 7a 32 be
       -0.44084644 -0.12125557 0.30336562 -0.17429648
000070 1d e6 a5 be ac ca 62 3c f6 37 95 be 0a 18 03 bf
       -0.32402125 0.013842266 -0.29144257 -0.51208556
000080 fa d8 7a bd a8 8b 17 bc 69 56 d1 be bf 67 ac be
       -0.06124208 -0.009249605 -0.40886238 -0.33672902
000090 40 75 91 3d 77 da 90 bd 40 cb d5 be e7 c8 23 bd
       0.07102442 -0.07072919 -0.4175663 -0.039986517
0000a0 7b 31 79 3e 8f 75 e0 bd 52 97 d1 bd 48 54 35 3e
       0.24335282 -0.109599225 -0.1023394 0.17707932
0000b0 6c 8d d1 3c 09 6e 06 3f 99 6b 82 be 09 66 82 be
       0.02558013 0.5251165 -0.25472715 -0.25468472
0000c0 f9 50 e5 3e d0 31 86 3e 76 6f ff be 3e 36 9a 3e
       0.4478834 0.2620988 -0.49889725 0.30119509
0000d0 10 6f e2 3e 60 32 03 be 17 bd 8d 3e f5 c4 cd bd
       0.4422536 -0.12812185 0.27683327 -0.10047332
0000e0 2b e0 b4 be 0c 41 16 3e 0d 38 99 3c 23 66 71 be
       -0.35327277 0.14673251 0.018703485 -0.23574118
0000f0 6e df ca 3d 63 05 9e 3e 10 d4 7a bc be 18 9b 3e
       0.09905897 0.30863485 -0.015309349 0.30292314
000100 a7 6c 28 3d 41 d2 e7 be f8 92 84 3e fb 47 dd 3e
       0.041119244 -0.45277599 0.25893378 0.4321898
000110 54 9e 27 be 05 e9 ee bc b0 f2 7b 3e d6 4b 06 3e
       -0.16368991 -0.029163847 0.24604297 0.13114867
000120 fa 5d 8c 3d 63 2c ee 3d 5d e5 52 3e eb 30 ba 3e
       0.06853862 0.1162956 0.20595308 0.36365446
000130 4a 0d 1b 3f 78 22 31 3f e2 43 a8 3e a6 a6 95 3d
       0.6056715 0.6919322 0.3286429 0.07307176
000140 34 e3 d2 ba 44 0b 83 3d f9 92 cb 3e c2 d1 ca 3e
       -0.001608944 0.06398633 0.3976057 0.39613158
000150 8c 5c 5a 3e 9a 5d 0e be 3d c9 9b bd ec b9 cd be
       0.21324366 -0.13902894 -0.076067425 -0.4018091
000160 4f 7c 5b be 75 08 72 be 48 8f 8e 3e a4 7d e8 3e
       -0.21434139 -0.23636039 0.2784369 0.45408356
000170 cb 06 33 3f a0 64 ae 3d db 27 9b bd 8b 57 44 3d
       0.6993224 0.085152864 -0.07575961 0.04793505
000180 3e fe 96 be 69 b2 df 3d b1 b5 ef 3d f1 60 ed 3d
       -0.29490846 0.10922701 0.11704577 0.11590756
000190 2b 80 12 3b ad fc 6e bc 4c 80 7d 3d e1 5a 5a be
       0.0022354226 -0.01458661 0.06188993 -0.2132373
0001a0 0f 0b cc bd 0c a2 e0 bd b5 c0 0d 3e 1c f8 a2 3e
       -0.09963047 -0.10968408 0.13843043 0.31829917
0001b0 72 ba 66 3e 42 6b 28 3e ed 74 a6 3e 00 99 8f 3e
       0.2253206 0.16447166 0.32511082 0.28046417
0001c0 d6 4a a0 bc 76 1d b8 bd 4e e3 b4 be 28 ff 0e bf
       -0.019566935 -0.08989994 -0.3532967 -0.5585809
0001d0 e1 e8 b1 be 50 05 11 3d 0b 0c ad 3c 4c c8 1a 3e
       -0.34747985 0.035405457 0.021123907 0.1511547
0001e0 8b 31 a2 bd d8 ae 30 3e f0 4c 8e 3e 75 48 9c bd
       -0.07919606 0.17254198 0.27793074 -0.076310076
0001f0 0c b1 44 be 7f 73 1b be e3 e9 95 3d d0 5a 8f 3e
       -0.19208163 -0.15180777 0.07320001 0.27998972
000200 8d 35 09 3e c7 79 d7 3d 4b c1 67 bd 5c c3 10 3e
       0.13399334 0.10521274 -0.056580823 0.14137024
000210 d5 36 17 bf 35 d4 13 bf 7c f1 83 be 1e 76 15 3d
       -0.5906804 -0.5774568 -0.25770175 0.0364896
000220 3a bf b8 3e 81 cf 88 3e c5 79 00 3e 6f 81 8b 3b
       0.36083394 0.26720813 0.12546451 0.004257373
000230 ce bd e3 3d 82 fd 46 bc d0 a4 b3 be 81 58 d9 be
       0.11120187 -0.012145402 -0.3508668 -0.42450336
000240 64 f0 01 bf 26 9b b4 be 8d 3a df bd 1e 6e 81 be
       -0.5075743 -0.3527462 -0.108998396 -0.25279325
000250 83 cd 00 be 13 20 30 3c 25 99 c8 3c 29 a0 e3 3d
       -0.12578396 0.010749835 0.024487088 0.111145325
000260 9e 55 7a 3e dc 81 21 be 6a 7c 01 be a1 dd 04 3e
       0.24446723 -0.15772194 -0.12645116 0.1297517
000270 23 9e fd bd 8f 03 d3 3d 73 20 9d 3d 1d 3e ec 3d
       -0.12383678 0.10303413 0.07672205 0.11535285
000280 0d ac 24 bc 49 1b 36 3d 03 f6 01 be 15 52 b1 3d
       -0.010050786 0.044459615 -0.12691502 0.08658234
000290 f4 72 0b be c1 8c 6b bd fa ab 85 bc a1 bc 60 bd
       -0.1361807 -0.05750728 -0.016317356 -0.05486739
0002a0 15 44 21 3e 94 08 c4 bd 47 fb c2 be 9b 1b 17 3d
       0.15748627 -0.09571949 -0.38082334 0.03689156
0002b0 f3 6b 59 3e 62 46 0a bd 17 fe 51 3d cd 28 56 3e
       0.21232586 -0.03375853 0.05126771 0.20914002
0002c0 47 b2 cd bd 4a 44 93 3e 12 01 2c be 0e a5 8a be
       -0.10043769 0.28763038 -0.16797283 -0.27079052
0002d0 6f a1 db be 8a 2e 12 3e e8 59 3d 3e 8d 15 3b be
       -0.42896602 0.14275566 0.18491328 -0.1826994
0002e0 07 c4 91 3e 0b 8b 09 3e c2 37 07 3e e2 6f 07 3d
       0.2846987 0.13431947 0.13204864 0.033065684
0002f0 dd 03 15 3e a4 3d db be 3c f3 03 be a3 20 a1 3d
       0.14552255 -0.42820466 -0.12885755 0.07867553
000300 81 45 05 bd 7f 68 4d 3e 84 f9 05 be 7b db 1d bc
       -0.032536987 0.20059393 -0.13083464 -0.009634848
000310 0b 5d 43 3e cc 41 26 be c2 d7 c9 be 95 05 56 3e
       0.19078462 -0.16236037 -0.39422423 0.20900567
000320 44 40 82 3e ba 4d bb bd 20 2d 4c 3e d2 54 11 3e
       0.25439656 -0.091456845 0.19939089 0.14192513
000330 92 c3 09 3e 9b 6f ad 3d e5 90 33 be 5d e2 db be
       0.1345351 0.08468553 -0.17535742 -0.4294614
000340 18 38 34 be 45 33 cd bd e9 ad 4b be 63 c7 0f 3e
       -0.17599523 -0.100195445 -0.1989056 0.14040904
000350 dc b0 ac 3d 7a 47 a6 bd 33 b3 2d 3e a5 70 64 3d
       0.08432171 -0.08119102 0.1696289 0.05577149
000360 28 ec 6c be 23 cd 40 be d5 fe 20 3d d1 ac 15 3e
       -0.23136961 -0.18828253 0.039305527 0.14616705
000370 4c 49 64 3e 9f 54 7d 3e 5d e8 d3 bd a0 22 3b 3e
       0.22293586 0.24739312 -0.10347054 0.18274927
000380 ea ab de bd a0 9c 57 3d 85 63 2b 3e 31 37 83 3e
       -0.10872634 0.052639604 0.16737182 0.25628045
000390 be a9 14 bc fc 73 46 be 32 18 6a be 5f 14 78 be
       -0.009073673 -0.19380182 -0.22860792 -0.24226521
0003a0 91 21 86 be 6d b6 b2 be f1 35 eb 3e 75 4e 15 3e
       -0.26197484 -0.34904805 0.45939592 0.1458071
0003b0 94 12 80 3e be 7b df be 49 fd f5 be 65 04 18 bf
       0.25014174 -0.43649095 -0.48044804 -0.59381706
0003c0 40 1f f4 be 50 79 df be 35 4c b6 be 73 1d cf 3d
       -0.47680092 -0.43647242 -0.35605016 0.10113039
0003d0 6e 69 0f be 20 4f 21 bd 5e b4 d5 be f0 67 10 be
       -0.14005062 -0.0393821 -0.41739172 -0.14102149
0003e0 c1 f2 bd be 78 24 38 be b7 22 4f be 9c 76 e0 bb
       -0.3709927 -0.17982662 -0.20228086 -0.006850077
0003f0 b9 b3 4f 3e cb 6e 2a 3e d5 9a 79 3e 4e e3 56 3d
       0.20283403 0.16643827 0.2437547 0.05246287

conv2.bias f4 [16]
000000 e2 97 c1 bd fb ac a8 bd c7 32 19 be fb 44 6d 3d
       -0.094527975 -0.082361184 -0.14960776 0.057927113
000010 cd 93 23 be 9e 0f 81 be 41 38 2e be 56 60 2a bd
       -0.1597435 -0.25207227 -0.17013647 -0.04159578
000020 e7 a0 74 bc 7f ee 3e be ce f9 15 bd dd 3a 3b be
       -0.01493094 -0.18645667 -0.036615185 -0.18284173
000030 35 73 91 3c 9a c8 5f be 94 fa cd 3c fb f6 21 be
       0.01775513 -0.21853867 0.025143899 -0.15816872

fc1.weight f4 [10, 784]
000000 60 2e af bc 2c 8c dd 3a ab 22 f0 bb 54 06 ac 3b
       -0.021384418 0.0016902736 -0.0073283515 0.005249778
000010 da 10 6a 3b 0c 4a 26 bd e0 09 f2 bc d0 14 9d bc
       0.003571561 -0.04059796 -0.029545724 -0.019174963
000020 81 58 f8 bc 83 85 ce bd 87 a2 8a 3c f9 b9 1b 3d
       -0.03031564 -0.10084059 0.016923202 0.038019154
000030 8e fe 64 3d 8c 28 0d 3e b7 fa 9c bd ac 88 e0 bb
       0.055906825 0.13784999 -0.076650076 -0.00685223
000040 51 c4 99 3c 7c a7 da 3c d0 bc ac 3d 95 92 cf 3d
       0.018770369 0.02669119 0.084344506 0.1013538
000050 c2 b4 b7 3d 1b 05 43 be 64 79 46 bb 34 16 ff 3c
       0.08970024 -0.19044916 -0.0030284757 0.031138517
000060 4a f1 e5 bd 76 de 12 bd 03 cb d0 3d 66 a2 f1 3d
       -0.11227663 -0.035856687 0.101949714 0.11798553
000070 6c 87 98 bd 0f 12 e1 3c 47 c6 fa 3d a5 c3 b8 3d
       -0.07447705 0.027474431 0.1224485 0.09021691
000080 6c 63 13 bd de 99 11 bd b9 51 dd 3d e0 a4 19 bd
       -0.035983488 -0.03554713 0.10806603 -0.037510753
000090 d5 b0 b0 3d 62 a7 9d 3d 95 9d 7e 3d 11 48 de bd
       0.08627478 0.07697941 0.062162 -0.10853589
0000a0 7d 59 a7 bd 40 6c 90 3d 82 04 e5 3b 8f dc 7d bd
       -0.081713654 0.07051897 0.0069890628 -0.06197792
0000b0 e8 8f bc bc 36 bd 6a be a0 49 6b be 72 5a 15 be
       -0.023017839 -0.2292374 -0.22977304 -0.14585283
0000c0 f5 84 86 3b f4 4e ab bb ce 8d 68 3d 63 ed e0 3c
       0.004105205 -0.005227918 0.05677586 0.027456945
0000d0 9a e9 9e bd cb dd 4d be 07 6f 84 bd 9f c2 7c bd
       -0.077594 -0.20104139 -0.06466489 -0.061709043
0000e0 72 90 19 3d 46 d9 a1 bd 8d d9 ee bd e7 3c 2a bc
       0.03749127 -0.0790277 -0.11662588 -0.010390497
0000f0 03 e9 ff bb 87 36 86 bd fb de 25 be 20 e7 66 3d
       -0.0078097596 -0.06553369 -0.16198342 0.05637276
000100 b8 34 06 be a8 44 00 be a1 cd 0f 3e 8f f7 9b 3d
       -0.13106048 -0.1252619 0.14043285 0.076155774
000110 f5 8e 0e be 60 47 e4 bd 03 ad 46 bc 83 2f 50 be
       -0.13921721 -0.11146426 -0.01212621 -0.20330624
000120 0a b9 a2 bd 37 29 bc bc 42 70 76 be a2 39 64 3c
       -0.0794545 -0.022968872 -0.2406626 0.013929756
000130 36 3c 3c bd 8f d3 82 bd b7 ff f0 bc e7 1b 0f 3d
       -0.04595586 -0.06388008 -0.02941881 0.03493872
000140 9c eb ca ba c3 ac 3f 3d 0c d8 a2 3d 96 c8 6a 3d
       -0.0015481594 0.046795618 0.07951364 0.0573202
000150 aa 2f b5 3d 1c c4 f4 3c 4a 54 7c 3d 1d b6 28 3d
       0.08846982 0.029878668 0.06160382 0.0411893
000160 02 50 91 3d c4 97 72 bb 63 6d c1 3d c7 32 0a 3e
       0.070953384 -0.003701673 0.09444692 0.13495933
000170 19 19 48 bd c4 69 3f 3d 46 07 a2 bc 5e f5 b3 bd
       -0.04885206 0.046731725 -0.019778859 -0.087870345
000180 25 c4 8b bd cd 11 0a 3d c8 9b 19 bd ea 81 88 3c
       -0.06824521 0.033708382 -0.03750208 0.01666351
000190 9c a2 24 bd 99 be 90 bc ab 36 cd 3b af 8b cd 3c
       -0.04019414 -0.017669009 0.0062626204 0.02509102
0001a0 65 a2 81 3d ef 19 16 bc 58 22 a3 bc cf 07 bc bd
       0.063298024 -0.0091614565 -0.019913837 -0.09181177
0001b0 6b 9f ea b8 15 e2 36 3c f3 f9 37 3d b8 57 d4 bc
       -0.000111876834 0.011162301 0.044916105 -0.025920734
0001c0 38 85 99 bc 53 8b e3 bc 06 ed 36 3d 49 4b 2b ba
       -0.018740281 -0.027776396 0.044659637 -0.00065343507
0001d0 71 00 76 bd 83 8d 6b 3c e5 1b df bc 80 c3 56 bd
       -0.060059015 0.014377001 -0.02723498 -0.052432537
0001e0 33 ac 1c 3d 2b 78 ff 3d ff e7 8d be 7c 88 48 bd
       0.03825016 0.12474092 -0.2771606 -0.048958287
0001f0 f6 6c ae 3d 56 bb 21 bd 6a aa 81 3c e3 a6 9b bc
       0.085168764 -0.039485298 0.01582833 -0.019000476
000200 f6 95 3a 3d 0e f2 40 bd b6 1f 0d 3e b1 45 85 3d
       0.04555317 -0.04710584 0.13781628 0.06507433
000210 af 7e 59 bd b8 cd e7 3d 51 f1 ca bd f9 df ee bc
       -0.05309933 0.113185346 -0.09909309 -0.029159533
000220 9e 0e 61 bc c8 be d7 3d f2 fb 75 3d 79 20 8e bb
       -0.013736395 0.105344355 0.060054727 -0.004337367
000230 88 ec fa 3c 3e 3e 8c bd f7 cc 72 be 36 d0 cc be
       0.030630365 -0.06847809 -0.23711 -0.40002602
000240 a8 17 3a be b1 c4 d7 3b 21 10 9e b8 33 3a 8b 3c
       -0.18173087 0.0065847267 -7.537031e-05 0.016995525
000250 83 e6 c8 3a 98 87 08 bd 9f c4 f0 bd 7b b8 c9 bd
       0.0015327487 -0.033332437 -0.117562525 -0.0984964
000260 a8 cc 82 bd ac 88 86 bb 19 8b bd bc 15 32 18 bd
       -0.06386691 -0.004105648 -0.023137616 -0.037157137
000270 d4 a1 8f bc 7e d2 6f 3d da 26 5f 3c 21 0b 49 bd
       -0.01753322 0.05855035 0.013620103 -0.04908288
000280 fa 3f da bc 3b c7 65 bd 3f 92 72 bd f8 38 d7 3c
       -0.026641835 -0.056098204 -0.059221502 0.026272282
000290 c8 a2 c8 3d 6c c8 83 bb a1 7f f2 bc 9f 71 25 3c
       0.09796673 -0.004021695 -0.029601874 0.01009789
0002a0 1a 48 23 be 92 ab 0b bd a5 60 23 3c 00 fd 24 be
       -0.15945473 -0.03409917 0.009971772 -0.16112137
0002b0 c7 34 5f be df 64 81 3d 4c d2 6d bb 22 e5 96 bd
       -0.21797477 0.06318068 -0.0036288677 -0.07367922
0002c0 33 68 c6 bc 59 19 7f bd f0 55 59 bd ca b7 18 bc
       -0.024219608 -0.062280033 -0.053060472 -0.0093211625
0002d0 88 9f c6 3d a2 ed 83 3d f2 e7 d3 3c 3b 06 53 3d
       0.09698397 0.06441809 0.025867436 0.051519614
0002e0 1b 9e 24 3d ae 75 be 3d b8 5e a2 3c 41 ca d7 bc
       0.040189844 0.09299789 0.019820556 -0.02634156
0002f0 c7 93 61 bc 87 cd d6 3c a7 d8 c6 bb ab b5 d3 bc
       -0.013768143 0.02622105 -0.0060683074 -0.025843462
000300 75 b3 cd bb 4c 25 2d bd 84 45 cd bd dd 33 c8 bb
       -0.0062774965 -0.042271897 -0.10023025 -0.006109698
000310 f0 10 91 bc 28 e0 6f bd 38 9e a9 bd 5e 86 e1 bc
       -0.017708272 -0.05856338 -0.08282131 -0.027529892
000320 bd 21 d8 bd ff 62 04 bd 92 bb ca bb 77 0e 04 3d
       -0.1055331 -0.032320973 -0.006186911 0.032240357
000330 7c 14 25 3b a0 a7 e2 bd 3d ff 90 bd 14 c1 ea bc
       0.0025189212 -0.11067128 -0.07079933 -0.02865652
000340 3b 13 56 bd 82 f6 a9 3c ac e1 33 bd ab 2f d9 bd
       -0.052264433 0.020747427 -0.04391639 -0.10604795
000350 bc 58 1d bd e9 1c ba bc 3e 9b 91 bd 57 08 cf bd
       -0.0384147 -0.022718864 -0.07109688 -0.101090126
000360 48 9b 38 be 95 37 98 bd 1d e4 6e 3d fc f9 40 3d
       -0.18027985 -0.074324764 0.058323015 0.047113404
000370 6c 85 8f be ef 26 33 be 33 48 90 3d 4b a3 9c bc
       -0.2803148 -0.1749532 0.07045021 -0.019120833
000380 a7 15 17 bd 32 37 63 bd b7 44 22 3d 83 b8 a5 bd
       -0.036885884 -0.05547256 0.039616313 -0.080918334
000390 9a 06 4c 3d 98 86 bc 3d 31 5a af bd ee f4 e0 bb
       0.049810983 0.09205359 -0.085621245 -0.0068651354
0003a0 6a 70 59 bd fd bf 41 3d 89 5d 83 3d b4 57 3d 3d
       -0.053085722 0.047302235 0.06414325 0.04622622
0003b0 cd ac 3c 3d 78 1e 99 bc 02 bd 8b 3c e1 c7 95 bc
       0.046063233 -0.018691286 0.0170579 -0.018283786
0003c0 33 23 a0 bd 23 79 51 bd 19 9f 69 3c 5c cf 1c 3c
       -0.07819214 -0.051140916 0.014259123 0.009570923
0003d0 d6 03 1c 3d 3f 6d 7c 3c 61 be f3 bc 55 1b 8d bb
       0.038089596 0.015406906 -0.029753866 -0.0043062367
0003e0 05 e4 38 3c dc 04 86 3b d5 f1 f2 3c 5f 08 02 3d
       0.011284833 0.0040899348 0.02965633 0.031746265
0003f0 8d 6b 23 3d b5 8d 38 bb 0c ca 5e bd f9 94 24 3d
       0.03989749 -0.0028160636 -0.054391906 0.040181134

fc1.bias f4 [10]
000000 6a 51 46 3d 5a 5c ce 3d 6d 61 cc bc 88 8d c7 bd
       0.048417486 0.100762084 -0.0249488 -0.09743792
000010 e0 6b 68 3d 31 99 76 bd 65 53 78 3b e2 bf 20 3d
       0.056743503 -0.06020469 0.0037891504 0.039245494
000020 88 b8 88 3b 8d 80 04 bd
       0.0041723885 -0.032349158
